opencv/script/cameraParam.npz (npz, 2312 bytes, 4 tensors)

tvecs f8 [31, 3, 1]
0	0x403231050c985bc8	18.191483294674782
1	0x403e0650051fabdb	30.024658508522275
2	0x4063e8138b237962	159.25238568237825
3	0x404180b0b87b5613	35.005393085692184
4	0x4038b8e1eb4b9bbe	24.72219725223453
5	0x4065b06cbdd120c2	173.51327410550408
6	0x4040771bbabf7781	32.930533736695914
7	0x4042f12b89c16abe	37.884141177598835
8	0x40652ec082450710	169.46099961740447
9	0x403cf92708e2a328	28.97325187237871
10	0x403f263eae0e898e	31.1493939195148
11	0x4065bda8c892bdd6	173.92685345325907
12	0x4042c3cbd57912af	37.52965801631705
13	0x4034aa45747b400f	20.665122299280537
14	0x40639a7bb5459b4f	156.82760108561567
15	0x4047082a81906f69	46.06379718353748
16	0x40130158b7dcae88	4.751314995617243
17	0x40679d453704aaed	188.91469908630043
18	0xc042ffad2e7d3a10	-37.99747258295622
19	0xc02d75a42474443f	-14.729767932121943
20	0x4062978fa9dae414	148.73628704788337
21	0x4013da9314830c20	4.963451691149231
22	0x40431aa2e5b8a5d3	38.20809623256687
23	0x406a016f980b7b09	208.04487230531984
24	0x40422ab04f968ff5	36.333505581394924
25	0x403faa69ce7e4245	31.66567698080532
26	0x406788d0a3fbe05f	188.27546881861323
27	0x4041bbc6ef8d4c29	35.46700853728573
28	0x402a8012026d75b4	13.250137401449003
29	0x40650bbf70b1167a	168.36711916530095
30	0xc044bdbd8a0b61bb	-41.48234677844763
31	0x3ffe096bfbb379dd	1.8773002464364403
32	0x4063d1b96438e7fb	158.55388079752433
33	0xc034845c5f9ded1e	-20.51703450780507
34	0xc030fa4e674dc5a5	-16.977758842933003
35	0x406a3b1bd3d4b136	209.84714690724803
36	0xc04703767b39c0e4	-46.027053263854924
37	0xc03ffd2641ceb6ed	-31.988865006415768
38	0x4066807535eafd3b	180.01430793663334
39	0x40323f1afb56cd8f	18.246505459491853
40	0x404219fbe60788f8	36.202999833754745
41	0x40659adae20c3b83	172.8392191161075
42	0xc049807737654242	-51.00363819546011
43	0xc01f72ddb32b3405	-7.862173842918314
44	0x40667217b2378314	179.56539259760086
45	0x40415da8d99f8ebe	34.731715395840624
46	0x403af31747b4f8d4	26.94957397621404
47	0x40682eec83a27a24	193.46637136205493
48	0x4041e29da99a7152	35.770436478053526
49	0x403aa2ae15771543	26.6354688087206
50	0x4069f7928d6153cb	207.73663968095056
51	0xc04da71e78bb36a5	-59.305617419636555
52	0xc0385afac18d59cc	-24.355388733872857
53	0x40686e5222a972f7	195.4475262937119
54	0x40468ab650d1e1dd	45.083688833695966
55	0x4020753de351bb63	8.228987792708443
56	0x4065c12c40176e8a	174.03665165497324
57	0xc040e5b1b934f413	-33.79448618970505
58	0x4030eb40ab219d16	16.918955512720537
59	0x406698959fbfbf71	180.7682646508288
60	0xc0346a81b7de5c5f	-20.41604184321147
61	0x403df03e29aef685	29.93844852944905
62	0x40643ce9b0499a19	161.90352644324665
63	0x400afce2939d6ad1	3.3734790356078084
64	0x404269d6f57a6299	36.826872524984715
65	0x4067a99fd5f9733f	189.30076121063937
66	0xc0441d9f3e478165	-40.231422219195146
67	0xc0351c4fa51bf527	-21.110590285611718
68	0x4063cbd54971e2e9	158.36978599780494
69	0x4041b1035fb0e076	35.38291545998156
70	0x403890f59d742719	24.566247788293456
71	0x405ef99b7e4f0eaf	123.90011556358762
72	0x4015c019c3dc5b7c	5.43759828598456
73	0x40426b119ec7b357	36.83647522688869
74	0x4066435bf20c38da	178.10497381579518
75	0xc044919ce54c2253	-41.1376005765675
76	0xc020803071bc01d4	-8.250369600486842
77	0x406218fd871ff048	144.78094822156913
78	0x403faabcdd0fbaaf	31.666944328632493
79	0x403a16a01c98608e	26.088380610658128
80	0x4063af99bf780202	157.48751805724174
81	0x4041763a44042c16	34.92365312770578
82	0x4039240c149ff8f2	25.140809334808132
83	0x406378391ce46e71	155.7569717847396
84	0x404251536adec12b	36.635358198897244
85	0x4038a38282c7ae6a	24.638710187673873
86	0x406407b8d1274c0d	160.24131066966257
87	0x40349dd83cbd8db7	20.616580768850067
88	0x4045fcdebd4ad9da	43.97554746775468
89	0x406456bc36777ae4	162.71047519050546
90	0x40470a6093b071ab	46.08107229342871
91	0x404401f6f32fe288	40.01534881437425
92	0x406671abbe540de1	179.55221477906073

mtx f8 [3, 3]
0	0x409ab76b96ddbdff	1709.8550676963057
1	0x0000000000000000	0.0
2	0x40833185cc7b432e	614.1903314237477
3	0x0000000000000000	0.0
4	0x409abbd821aa1018	1710.961065919144
5	0x4080e9459e6e92d3	541.158993591171
6	0x0000000000000000	0.0
7	0x0000000000000000	0.0
8	0x3ff0000000000000	1.0

dist f8 [1, 5]
0	0xbfcbee4b2ccb84a0	-0.21820964514976016
1	0x3ff827c46d74603f	1.5097088122911513
2	0xbf56559c49a28562	-0.0013631845709272884
3	0x3f4eea68f5377a27	0.0009434711923253556
4	0xc01cbc9910446da8	-7.184177641083274

rvecs f8 [31, 3, 1]
0	0xbfe75dc4b4424064	-0.730196334903678
1	0x3fe8e23f0a6ece20	0.777617950798632
2	0xc00624930a3442ed	-2.767858581275837
3	0xbfc702a93db9fbe3	-0.1797687102698254
4	0x3fedf1952684a26b	0.9357400657946305
5	0xc005cb5333d6d989	-2.7242797899190845
6	0x3fbfdf451cc9f686	0.12450057938436929
7	0xbfa5d41991eb7408	-0.0426338186859781
8	0xc005775447dc66b3	-2.683266221440897
9	0x3fd8fa94f87be255	0.3902943064308933
10	0x3fe83f9b023aefcd	0.7577643436011329
11	0xc0067d6e59f6582f	-2.81124563487085
12	0x3fa57fdf7b4a4484	0.0419912183762188
13	0xbff322c31f01effd	-1.1959868632538921
14	0x40071301bf1d51df	2.8842806750128456
15	0x3f96f702b92575d2	0.022426645803866503
16	0x3f88be8eec5c578d	0.012082211101681195
17	0x4005c72a8fab72e9	2.7222491478154223
18	0xbfc437aba0b9839a	-0.15794892642864228
19	0xbfe5946030a99785	-0.6743622732580979
20	0xbfdb8474df1e6e57	-0.4299595049758173
21	0xbf930b84ce792807	-0.018598628141525377
22	0xbf29dce01facff78	-0.00019731746564310613
23	0xc00132a8d6ca8320	-2.149736097388441
24	0xbfc935a3f60ecf28	-0.19694947733443624
25	0x3ff4515677a7199e	1.2698578523573825
26	0xc00533fafb8a5576	-2.6503810550299773
27	0xbfc3cf5f184a1c48	-0.15476597486505939
28	0x3ff6a1972d30db78	1.414450813795808
29	0xc0056888322584eb	-2.676041023035045
30	0xbfd7b5f76d9c9c29	-0.3704813547541926
31	0xbfe4a54bad1fb446	-0.6451776868176544
32	0xbfedeffee5513750	-0.9355463484623474
33	0xbfdb8ee92231f2f2	-0.4305975755631116
34	0x3fb163c34503ca0e	0.06792850909167944
35	0xbfd42994762722cd	-0.31503783739439656
36	0x3fbbea7b730542b9	0.10904666479224091
37	0xbfca4410adf201f7	-0.2052021836607449
38	0xbfcd182cb3b4ec07	-0.22730025076620583
39	0x3fba81e35a1caa01	0.10354443502425427
40	0xbfa07f314ba23b24	-0.03222040222418901
41	0xc0055c94d9e12ca9	-2.670205785927085
42	0xbfbb630fe846ad66	-0.10698031826784912
43	0xbfd34fead62e10ea	-0.3017527667618781
44	0xbfe28668792bfe3b	-0.578907238639608
45	0xbfc4a73f6af56f16	-0.16135399553865487
46	0x3feb64357c42a2c4	0.8559825350722226
47	0xc006171b1fc3d51c	-2.761282203830559
48	0xbf95f5cfcd2bbf9d	-0.021445509812962994
49	0xbf74ddc2e3f05a14	-0.005094300547190862
50	0xc0063d531fdf870f	-2.7799437036600305
51	0xbf900a6ebc10870a	-0.015664797047185743
52	0xbfd08bc955b2e046	-0.2585318886663156
53	0xbfb71f26a5b08950	-0.09031907601505407
54	0x3fabb7aeaf0e2a27	0.05413576018243687
55	0xbfb8b342155fa25f	-0.09648526212516505
56	0x4005a9025da70b9e	2.7075240437129215
57	0xbff0c5ac96c8ce38	-1.0482602968230719
58	0x3fd75d1d70819d69	0.3650582884497085
59	0xbff14073b6320eb7	-1.0782353512776532
60	0xbfe1692215163f0d	-0.5440836345532901
61	0xbfe0a3fd42d2f722	-0.5200182252080803
62	0xbff830be2c56b26f	-1.5119001132944978
63	0xbf92129ca4719866	-0.017649123703812462
64	0xbf53a040021e5da4	-0.0011978745537585067
65	0xc000bf664d9a4f7f	-2.0934568464962804
66	0xbfb127dfb45bc0e7	-0.06701467660218761
67	0xbfd5459e0a657feb	-0.3323741055992275
68	0xbfd58e903b32a672	-0.3368263795951868
69	0x3fad0e6c33dae9e9	0.056750661210987215
70	0xbff267c998bacc77	-1.1503387418750017
71	0xc0068005aeb725ae	-2.8125108384744726
72	0xbfd2738e02ecb3ce	-0.28830290113074575
73	0xbfc200b072f046c4	-0.14064603435740797
74	0xc0016c27b47ee608	-2.1778101063944213
75	0xbfd0921c1fa96a26	-0.25891783802004154
76	0xbfe396c065995067	-0.6121522888520418
77	0xbfe7cf2f3137d5ca	-0.7440410577098018
78	0x3fdd934c6f135da5	0.46211539122801987
79	0xbfa33c23460f8094	-0.03756818990928071
80	0xc0086e4f68e5fa44	-3.0538623995956033
81	0x3fe184a2cfabaf9a	0.5474409156863544
82	0xbf9f23706f45e2a2	-0.03040862731129102
83	0xc00898c84fd7bcbe	-3.0746008146012107
84	0xbfde356195b48ea7	-0.47200812930734987
85	0xbfb0ea563dcd9fba	-0.06607569702975882
86	0xc006d5b40095db38	-2.8543472333652993
87	0xbfd20a3527f77b8b	-0.2818730249691092
88	0xbfc7ba503a901c61	-0.18537333354490484
89	0xc003e34df5f2ffc8	-2.4859885420591787
90	0xbfde00acafdb40bd	-0.46879117177469337
91	0xbfaac285ea1a09ab	-0.052265343500965976
92	0xc0078443505b028a	-2.9395815160535834
