opencv/script/cameraParam.npz (npz, 2312 bytes, 4 tensors)

tvecs f8 [31, 3, 1]
00000000: be08 dc75 a2d7 3a40 5e53 2c76 b33a 4640
00000010: 3916 33ab c05d 6d40 c8d5 18b7 45d1 4940
00000020: 6deb d971 9251 4240 4c04 069b e8fc 6f40
00000030: 943d 65fe b447 4840 652c dfee 8e07 4c40
00000040: b0f8 5f59 db3b 6f40 789e 55fd 1460 4540
00000050: 0cb5 779a 3611 4740 1e0a c8d9 dd08 7040
00000060: 3bd4 3a4a deae 4b40 3ac7 5438 93a3 3e40
00000070: 1cec 452e d8ea 6c40 ea25 9968 09fe 5040
00000080: a1e8 b2ad fad4 1c40 9617 dcba a669 7140
00000090: 47b2 03f2 b108 4cc0 f4b5 d59a 949f 35c0
000000a0: 2313 3dc6 8271 6b40 26cc 4cb5 f434 1d40
000000b0: f6ea 8530 1d47 4c40 e885 8c9f e92d 7340
000000c0: 0b64 486b 8ecc 4a40 3e9d 77e8 e872 4740
000000d0: e445 749c 135b 7140 1e5f 53f0 1829 4a40
000000e0: b51b 0091 2fb4 3340 0abf 5144 fb0a 6f40
000000f0: 80a6 ffbd af9d 4ec0 f299 14ca e44d 0740
00000100: c887 97f2 2a44 6d40 3030 97dd ad3c 3ec0
00000110: d61a 32d9 46e2 38c0 7409 2722 5d5a 7340
00000120: f268 5c4a 04f9 50c0 bdff e7ec 3889 47c0
00000130: 736e 24cb 5199 7040 7463 95f3 abe6 3a40
00000140: 081e 97ac 64ca 4a40 4a0a 17e0 b8dc 6f40
00000150: 941b dcda 19d1 52c0 a168 663a 6cea 26c0
00000160: 0391 1745 5f91 7040 e8ab 37f7 d89d 4940
00000170: 5e34 6457 9df8 4340 98d6 ef78 3ad5 7140
00000180: b333 4158 0961 4a40 4c4d 540d 80bf 4340
00000190: 0134 8eda e325 7340 22bb 26f2 82df 55c0
000001a0: a2a0 3d9f d1e5 41c0 829c fd3d b407 7240
000001b0: 4168 545c 05a2 5040 d053 fe6f 2ea6 2840
000001c0: 7cbc 1de7 370c 7040 7c01 59d5 7fe8 48c0
000001d0: 9183 3bf8 171d 3940 5242 82ad a9a9 7040
000001e0: c6ff 1d86 e621 3ec0 fc74 49e5 a830 4640
000001f0: 5359 06a4 55e4 6d40 e192 4952 79d3 1340
00000200: 9ff5 c36a de3f 4b40 a475 6adf 8873 7140
00000210: 346f 6ee4 cfad 4dc0 fd58 ecbd d809 3fc0
00000220: 2991 a8f0 ed37 6d40 9348 1668 ed18 4a40
00000230: 7e45 4f31 372e 4240 f243 9971 5bd6 6640
00000240: f65b 144b 6611 2040 d8a9 1ab9 2147 4b40
00000250: 1b54 12a2 5870 7040 2baf 9ed8 845b 4ec0
00000260: 5023 eb44 dd1e 28c0 b73a 14e6 39b8 6a40
00000270: 29e4 7bc6 8a5c 4740 55d9 9fe3 c853 4340
00000280: 8909 9159 0209 6d40 8386 42ae e9c3 4940
00000290: 7298 e793 a5a0 4240 2a7b a5c2 b7b7 6c40
000002a0: 977a 6654 6f08 4b40 4f92 7a0b 5e42 4240
000002b0: ada5 2287 868e 6d40 08be e21d 176e 3e40
000002c0: ac37 47e7 0a45 5040 f4f4 ccdc b906 6e40
000002d0: 3448 d2d9 e000 5140 4aee 036d 529f 4d40
000002e0: f339 0ab9 f98f 7040
26.842322698802256 44.45860173382128 234.92976913431065 51.63494003975535 36.637281638532706 255.90339423346666 48.560210990365846 56.05904947182788
249.8705260157053 42.75064055138222 46.134478863192356 256.55416277065694 55.366158751225576 30.638965149591264 231.33888925224971 67.96932425456876
7.20798751263115 278.60320554707994 -56.067930461697465 -21.623361279654958 219.54721366814292 7.301714737713189 56.555578294171866 306.86953692333054
53.59809628519732 46.89773279037989 277.6922878782191 52.321073570927396 19.70385080578463 248.3431722256285 -61.23192572577409 2.91303403735514
234.13024262996464 -30.23702797833556 -24.88389356110823 309.64773764847564 -67.89088686966332 -47.07204972580028 265.58246912222893 26.901061271640586
53.581197332179784 254.89756779193914 -75.26720305914779 -11.457856965066016 265.0857592506947 51.233183767493585 39.9423016776352 285.3267754906351
52.75809767898263 39.496095338976914 306.36812835262396 -87.49236730367969 -35.79545965680269 288.48150443140923 66.5315771889009 12.324573039813828
256.7636481439183 -49.816401165447104 25.11364699795701 266.60392523653456 -30.132423765491488 44.380154286258374 239.13545418968224 4.956517492046914
54.498975129779176 279.2209161909652 -59.35790686981491 -31.03846346874433 233.74779541896103 52.1947450741583 36.36105934496571 182.69866256651545
8.033983560786492 54.55571664621283 263.0216389385184 -60.714991643412155 -12.060281900122988 213.757067718039 46.72298508691194 38.6545681505692
232.281536849285 51.53056886909783 37.25505303200124 229.74118168182878 54.06589751247264 36.518495020722746 236.45392185942674 30.430040233475694
65.07879049258071 240.21018829374918 68.01372380767208 59.24470293704924 264.9984674834697

mtx f8 [3, 3]
00000000: cd92 3bbd c4b6 9a40 0000 0000 0000 0000
00000010: 46ca 770b e130 8340 0000 0000 0000 0000
00000020: c334 613f d6b6 9a40 7c82 0574 09e1 8040
00000030: 0000 0000 0000 0000 0000 0000 0000 0000
00000040: 0000 0000 0000 f03f
1709.6921281154966 0.0 614.109885154591 0.0 1709.7092261494115 540.1296158247419 0.0 0.0
1.0

dist f8 [1, 5]
00000000: fd62 9477 25be cbbf 90be e354 9699 f83f
00000010: b24b 8dec d2e1 50bf 5266 8e3c 0990 493f
00000020: ca82 5f9e 60bf 1dc0
-0.21674030627107035 1.537496883010963 -0.0010304031186094517 0.0007801098919230731 -7.436892008380434

rvecs f8 [31, 3, 1]
00000000: edb7 b4c4 8b5d e7bf 1915 962c 06e3 e83f
00000010: a73d f3b8 9724 06c0 591e d7e2 ee1d c7bf
00000020: 7365 a44c ddf2 ed3f 92f8 ecfe 35cb 05c0
00000030: c17e 67ba a8ca bf3f 4cbd d82e 8af8 a6bf
00000040: 210c 9ecc 0977 05c0 0e61 c8b3 ece3 d83f
00000050: b677 0328 5a3e e83f 8b2b cccb e87d 06c0
00000060: 89c4 cb1e 7c81 a53f 9e98 4dfe 0222 f3bf
00000070: c4fb 3d5a 1c13 0740 dfb4 f1d0 f054 983f
00000080: 0142 83d7 07b0 883f 3933 d8ba 0ac7 0540
00000090: aaaa b2ad 362e c4bf 34d7 d98d d48e e5bf
000000a0: 9740 d4e8 3881 dbbf 0133 bc05 acd5 90bf
000000b0: b916 57ed e707 48bf 47d0 badc 9f32 01c0
000000c0: e439 740b 6146 c9bf 91cf 44c8 7150 f43f
000000d0: 33f5 f389 4234 05c0 59e0 6819 edd8 c3bf
000000e0: 6603 489d 49a0 f63f 846d 7a89 e568 05c0
000000f0: 55e6 ed2e 0ea8 d7bf 54e3 8520 e29d e4bf
00000100: 9bc4 53e8 80ef edbf 7382 7127 e1a4 dbbf
00000110: e921 9be5 5dc5 b13f 1ff5 a978 4728 d4bf
00000120: 5659 1a4e 8c38 bc3f f533 f55c 4b20 cabf
00000130: 7c7b 2200 fb14 cdbf f9f4 7174 e578 ba3f
00000140: 93b8 9a8e b52a a1bf da75 4777 675c 05c0
00000150: 5b65 0592 6a08 bbbf 8c8d 9ced 9731 d3bf
00000160: 3461 1a87 da85 e2bf 4d44 a2db 23c4 c4bf
00000170: f637 e604 aa66 eb3f 7d00 9d6d ed16 06c0
00000180: 6dd7 4418 0031 95bf 7e4a c2a2 ffcc 7bbf
00000190: 1bb7 e986 3c3d 06c0 de11 b8d4 6421 90bf
000001a0: 5308 8711 1f72 d0bf 01f4 b23a 5e19 b7bf
000001b0: 270d dcf0 0862 ab3f 8b22 0f29 c6ef b8bf
000001c0: bcc1 03e6 d0a8 0540 6bc0 1310 d1c8 f0bf
000001d0: 4034 c36d 7d6c d73f b80a 58bb 4c40 f1bf
000001e0: dae4 59a0 765f e1bf fc2b db7c c899 e0bf
000001f0: 6eda b07a 1a32 f8bf ecfe eb27 cc34 8fbf
00000200: 316c bb19 c361 5dbf 8886 7aa4 67bf 00c0
00000210: 879d 60d8 11fd b0bf 5d42 6a99 9f30 d5bf
00000220: 015c 71ab e38c d5bf 0779 70ee 8917 ad3f
00000230: 1f33 c891 cb6d f2bf d944 9a2c b17e 06c0
00000240: c499 bd36 924a d2bf dff2 9643 7aaa c1bf
00000250: 8eee e61c 026d 01c0 5b78 d3b3 df84 d0bf
00000260: 9c4d 4bb4 7c8f e3bf 92d5 06ca 2bce e7bf
00000270: 299a 986e 6978 dd3f 033e c5ea c1a0 a3bf
00000280: 132b b21f 8d6e 08c0 25aa 1da8 d377 e13f
00000290: f27a d33f 52bf 9fbf 2da3 37de 1099 08c0
000002a0: 8e97 0660 9e1f debf 8ab4 ab2a 4ce6 b0bf
000002b0: bb76 97a8 61d6 06c0 983a fa0d 56e2 d1bf
000002c0: 1107 a06c c48f c7bf cc1c 632c 02e4 03c0
000002d0: 3278 81e1 7ae0 ddbf d69b bf43 1090 aabf
000002e0: f9d0 604d 1485 07c0
-0.7301691858208393 0.7777129050088291 -2.7678675126296244 -0.18060098720728737 0.9358965393941346 -2.724224082571774 0.12418608237157526 -0.04486495801790599
-2.683124159405921 0.3889114146891338 0.7576113492502745 -2.8114791795428054 0.04200351596762981 -1.1958036359515414 2.8843314218679286 0.023761523011150195
0.012054501785685014 2.72218843433657 -0.1576603267797812 -0.6736853380705043 -0.4297621034356864 -0.016440093851133323 -0.0007333643395035151 -2.1497189754973394
-0.1974602991035247 1.2696397612571426 -2.650517537839414 -0.1550575613089247 1.4141327041436056 -2.6762190571295736 -0.36963228781642005 -0.6442728648390621
-0.935486272586917 -0.43193844653982366 0.06941782813658616 -0.31495844634612696 0.11023785502252301 -0.20411054648357632 -0.2272027731569003 0.10340723126315145
-0.033528970391999334 -2.670119220608041 -0.10559717240302773 -0.2999019451546807 -0.578839553712021 -0.1622357199126178 0.8562822433175359 -2.7611950458086185
-0.020694734078652233 -0.006787298753027414 -2.779900602347778 -0.01575238750776175 -0.25696541511218135 -0.09023083623010565 0.05348232212238662 -0.09740866186542456
2.707429692258499 -1.0490275028241978 0.3659967014216967 -1.0781981771585105 -0.5429032451494564 -0.518772357806824 -1.5122322838411963 -0.015237421959227025
-0.0017933278349378074 -2.0934594011203593 -0.06636153729106385 -0.3310927389329999 -0.3367242025610154 0.05682021175037915 -1.1518054670916127 -2.811861370523371
-0.285801461656231 -0.13801506328845556 -2.178226686284524 -0.2581099754442044 -0.6112655183191467 -0.7439173646768487 0.4604743557014524 -0.038335857304101516
-3.053980109810604 0.5458772929681045 -0.03100327028811995 -3.074739204476279 -0.4706798494101968 -0.06601406137242996 -2.8546784564230996 -0.2794394623278236
-0.1840749292751345 -2.486332270407365 -0.466826172085237 -0.05188036753661833 -2.9399801297350874
